safebench/scenario/scenario_data/model_ckpt/lc/1.pt (torch, 12359 bytes, 10 tensors)

fc_input.0.weight f4 [32, 61]
000000 ac 5b 00 bb 35 9e 8a 3d d4 dd d9 bd 8e 06 c3 bd
       -0.001958589 0.06768457 -0.106380135 -0.095227346
000010 04 16 4e bd 45 89 08 3d f5 c9 67 bb f5 dc cd 3d
       -0.050313964 0.033334035 -0.0035368179 0.1005191
000020 21 8c 4a bc 5b ad 06 3d 9e 96 22 bd 7a 5d d6 bc
       -0.012362511 0.03288017 -0.03969442 -0.02616762
000030 1e 8f fc bd 19 b6 af bd 2b 48 5c bd 2d 4c 75 3b
       -0.12331985 -0.08579654 -0.053779762 0.0037429438
000040 db 6c 53 3d be 62 9f 3d ad b8 af bd 1a 47 60 bd
       0.051617485 0.077825055 -0.08580146 -0.054755308
000050 cc 94 42 3d bd ca db 3d d5 aa cf bc 1d 45 c6 3d
       0.047505185 0.10732029 -0.025350014 0.09681151
000060 a5 de a0 bc 30 5b 6e 3c 48 7b ef 3d 8e 34 f1 bd
       -0.019637415 0.014548108 0.11693436 -0.11777602
000070 76 07 a3 bd 7b ac 00 bd b7 85 50 bd 88 82 e0 3d
       -0.079604074 -0.03141449 -0.05090877 0.10962397
000080 6d 03 ac bd 36 83 75 bd c5 3e b9 bd f2 a1 f7 bd
       -0.08399091 -0.059939586 -0.090451755 -0.120914355
000090 bd 1d 9b bd fc 5a df 3d 1a eb 65 3d d2 15 7a 3d
       -0.075740315 0.10906026 0.056132413 0.061055966
0000a0 6d e1 bb 3b d0 7b 88 bd 1a 43 a9 3c 8a e1 f6 bd
       0.00573366 -0.0666424 0.02066188 -0.12054737
0000b0 dd 84 bf bd 50 22 85 bd 05 7e a7 3d fb ca 9b 3d
       -0.093515135 -0.06500685 0.08178333 0.07607075
0000c0 7a 7d 64 bd 73 3b 6d bb d9 c0 a9 3d 54 5d 03 3e
       -0.055783726 -0.0036198765 0.08288736 0.1282857
0000d0 8d 3c 54 3d 51 e3 95 3c d5 dc b1 3d f4 58 98 bd
       0.05181556 0.01829687 0.086846985 -0.074388415
0000e0 e9 a4 cb 3c 94 40 c9 bd 57 b1 b3 bd 0a 69 85 bd
       0.024858909 -0.098267704 -0.08774059 -0.06514175
0000f0 d5 32 69 3d 09 d0 4e 3d d9 5f 9d bd 3d 57 1a 3d
       0.056933243 0.050491367 -0.07684297 0.037680853
000100 37 e7 8d 3d 22 94 8c bc a7 d8 7e 3b 88 d6 ea 3c
       0.06928866 -0.017160479 0.003888646 0.02866675
000110 7a a0 a0 3d d1 bb f9 3d dd 1e cc bd 7c 49 44 bd
       0.078431085 0.12194026 -0.09966824 -0.047921643
000120 86 03 4a 3d be 36 d7 3d 2a 23 e2 3d bc 52 e5 3d
       0.049319766 0.10508488 0.11041863 0.11197421
000130 cd 8c c8 3c 3b f9 e1 bd a2 5c 51 3c 79 ff a1 bd
       0.024481202 -0.11033865 0.012778433 -0.07910056
000140 1e 54 f2 bd 31 07 eb 3d e0 6d c9 3d fc c2 01 be
       -0.1183245 0.11475981 0.0983541 -0.12672037
000150 3f 83 cc 3c 85 80 a8 bc a0 69 a4 bc 38 f8 6b bd
       0.024964927 -0.020569095 -0.020069897 -0.057609767
000160 b4 c5 4d 3d fb 43 99 bd cf 59 44 3d fd 8e 82 3d
       0.050237373 -0.07483669 0.04793721 0.06374929
000170 e2 aa b9 3d 64 ff 3f 3d b8 c9 02 be 25 26 ac bd
       0.090657964 0.04687442 -0.12772262 -0.08405713
000180 d5 e1 80 3d f1 56 d3 3c ed 99 ce bd 04 0a 99 bd
       0.06293074 0.025798293 -0.10087953 -0.074726135
000190 85 a2 f4 3d e5 a3 ae 3d 98 92 60 bd 6f cb ff bc
       0.11945061 0.08527354 -0.054827303 -0.031224934
0001a0 e9 bd f7 bd 27 92 aa ba 34 6b c3 bd 80 37 c8 bd
       -0.12096769 -0.0013013527 -0.09541932 -0.09776211
0001b0 31 67 c6 bb 06 ad a5 3c 7d ad 52 bd a9 a4 9d 3d
       -0.006054782 0.020224106 -0.051434983 0.07697422
0001c0 d9 85 9d bd 6a fa ef 3d 3d bf b5 3d c7 13 db bd
       -0.07691545 0.117176846 0.088743664 -0.106971316
0001d0 79 db fc bc 9e 14 de 3b 76 39 a1 3c be 7a 00 3d
       -0.030866371 0.00677736 0.01968072 0.031367056
0001e0 96 e6 51 3d 3e 8b da 3b fc ca 7b bd 3a 41 7c 3d
       0.051245295 0.006669431 -0.061472878 0.061585642
0001f0 5e 7c f9 bd 0c 5f 99 bd 9f 5f fe bc 84 5d 7b bd
       -0.12181924 -0.07488832 -0.031051455 -0.06136848
000200 cc 5e 33 bd 71 df d4 bd 97 eb d6 bc 7f 65 e8 3c
       -0.043791577 -0.103941806 -0.026235385 0.02836871
000210 70 c7 a8 bd 04 8b b6 bb 12 c2 bd 3d 10 44 47 bc
       -0.08241165 -0.005570771 0.092655316 -0.012162223
000220 df 5e 95 3b 4e 96 24 bc 25 77 dc 3c 0d c7 a8 3d
       0.0045584287 -0.010045601 0.026912281 0.08241091
000230 a5 56 f6 3d df 79 a4 3d 23 e8 f6 3d e3 18 28 bc
       0.12028245 0.080310576 0.12055995 -0.01025984
000240 ff 9a ed bd 7b b8 7c bd a8 7f b0 3d 81 dc ef ba
       -0.11601829 -0.06169937 0.086180985 -0.0018299968
000250 1e 62 84 bd 6c fd ca bd 5b 72 f7 bd 0b 5d df bd
       -0.06464027 -0.09911618 -0.120823584 -0.109064184
000260 1d 8f cc bc cc d9 91 3d 8d d0 8f 3d 4a d8 fa bd
       -0.024970585 0.071216196 0.070222 -0.12248285
000270 a8 9d a5 3d 2a 24 cb bd 38 8d d5 bc ba 8c 50 bd
       0.08086711 -0.09919007 -0.026068315 -0.050915457
000280 84 d6 c1 bc 61 bf c5 bc 33 41 e9 bd 53 75 e4 bd
       -0.02366186 -0.024139108 -0.11389389 -0.1115519
000290 e6 51 ac bc bd e9 2b 3a e4 55 72 bd b5 75 41 3d
       -0.021035146 0.0006557962 -0.059163943 0.047231395
0002a0 97 0f ee bd af f4 1d bc 8f 8d e4 3d b0 02 5a bd
       -0.11624067 -0.009640857 0.11159813 -0.05322522
0002b0 b0 bc ea 3d e4 d4 39 3d df b0 ee bd 8c db a3 3d
       0.114617705 0.045369044 -0.11654829 0.080008596
0002c0 0c 3a 81 bc 8d 35 6e bd 00 a3 cf 3d 45 f2 d5 bd
       -0.01577475 -0.05815654 0.10138512 -0.104466
0002d0 31 b7 50 3c 55 cb e3 bc 63 4d bd 3d 84 7d 16 3d
       0.012738989 -0.027806917 0.09243276 0.036740795
0002e0 c0 0b 80 3d 6d 4e 3d 3d 63 09 f4 bc 8e 64 d4 bc
       0.06252241 0.04621737 -0.029789632 -0.025926854
0002f0 d1 0a d6 bd 50 21 90 3d 9d 3e d2 3d 13 77 b5 3d
       -0.10451282 0.07037604 0.10265849 0.08860602
000300 7d ea b6 bd 2d e3 db 3b ac cc b6 bd 4e 65 92 bd
       -0.08931444 0.006710431 -0.08925757 -0.071482286
000310 43 d8 9a bd e2 20 2f 3d df 4e 9e bd d0 9a 78 bb
       -0.0756078 0.04275597 -0.07729887 -0.0037934072
000320 b6 ba 8f 3b 19 fc a6 3d d8 43 c8 bd 9f 10 b6 bd
       0.0043862714 0.081535526 -0.09778565 -0.08889889
000330 0e 4f 9a bd fc 7c b5 3d 0e 9d 40 bd 97 21 db 3d
       -0.0753461 0.088617295 -0.04702478 0.10699766
000340 8e 8b 39 3d 1c 3f 79 3c 7b ff ff ba 2e 89 d7 bc
       0.045299105 0.0152128 -0.0019531095 -0.02631053
000350 56 d0 76 3c a0 b2 f7 bc 6f fd f8 ba 6e 46 7b 3c
       0.01506432 -0.030236542 -0.0018996428 0.015336616
000360 50 28 cf bd 4a 7c 8b bd 3f b1 d1 3d f6 d9 d6 bd
       -0.10115111 -0.06810816 0.10238885 -0.104907915
000370 12 04 27 bc c4 ac 00 3e d0 59 39 3d 19 0a 2c 3b
       -0.0101938415 0.12565905 0.045251667 0.0026251136
000380 42 4a e5 bd 15 b3 7f 3d 6a d2 bc bd 2b f7 18 bd
       -0.11195804 0.062426645 -0.09219821 -0.037345093
000390 cb 0d 34 bd 83 84 a3 bc c7 fa d1 39 23 54 da 3d
       -0.043958467 -0.019960647 0.0004005043 0.10660579
0003a0 fa 21 8b 3c 8a ea ec 3d 72 73 a2 3d 19 bb a3 bd
       0.016983975 0.11568172 0.07932176 -0.079946704
0003b0 1f 4f 6f 3d 60 50 b7 bd ab 2c 5a bd 6e 58 1e 3d
       0.058425065 -0.08950877 -0.053265255 0.038658552
0003c0 fa 42 31 3d c0 c5 c6 3d b1 ba 24 bd 0e f0 9d 3a
       0.043276764 0.097056866 -0.040217105 0.0012049691
0003d0 78 0b 89 3d df 8a fb bd ae a0 bf 3d 87 c9 d6 bd
       0.066916406 -0.12282347 0.09356819 -0.10487657
0003e0 70 2f 35 3b 87 22 aa bc 52 0e 88 bd c5 d2 92 3c
       0.0027646683 -0.020768417 -0.066433564 0.017922768
0003f0 db e1 da 3d 32 35 15 bd 54 a1 99 bd a9 dc 3d bd
       0.1068761 -0.036427684 -0.07501474 -0.046353016

fc_input.0.bias f4 [32]
000000 88 de e2 3d 75 a1 26 bd 7b 02 4a bd 7d 0e a4 bd
       0.11077601 -0.04068132 -0.04931877 -0.08010576
000010 74 44 c3 3d 4c 7b 10 bd d5 51 40 bd c3 67 b3 3d
       0.09534541 -0.035273835 -0.04695304 0.08760025
000020 38 55 f3 3d 8c 92 d1 bb 15 d7 b8 bd 5a b3 d7 3d
       0.118814886 -0.0063956436 -0.09025399 0.105322555
000030 c2 43 2f bd b0 ac 71 bd 05 65 ba bd 99 28 80 bd
       -0.04278923 -0.05900258 -0.09101299 -0.062577434
000040 77 5c cd bd 5b 5b 97 bd b0 d2 ec bd 58 36 cb bc
       -0.10027402 -0.073904715 -0.11563623 -0.024806187
000050 98 c4 4e 3d bb 0e c7 bd 78 7e 3b b9 35 7d 45 bd
       0.050480455 -0.097196065 -0.00017880823 -0.04821511
000060 04 93 79 3d e3 10 e1 3d 04 3c 93 bc 9b f9 83 bd
       0.06093122 0.10989549 -0.017972954 -0.06444093
000070 32 87 cb bd 92 1b 9c bd 5a 52 13 3d 9f d9 f8 3c
       -0.09937896 -0.07622446 0.03596721 0.030377207

fc_action_a.0.weight f4 [2, 32]
000000 3a 04 c5 3d 13 fd ce bc 5b 13 bc 3d 12 40 20 be
       0.09619947 -0.02526716 0.09183379 -0.15649441
000010 e7 bd 46 3d a4 c1 30 3e 6b 21 32 be 6f e5 b9 bd
       0.04852095 0.17261368 -0.1739556 -0.09076964
000020 64 d0 e9 3d a1 39 da bc 79 fb c0 bd 3d ea de 3d
       0.114167005 -0.026638808 -0.094229646 0.10884521
000030 aa 88 52 3c 38 e1 e2 3b bf d4 57 bd 40 69 09 3e
       0.012849966 0.006923821 -0.052693125 0.13419056
000040 63 d2 c8 3d 60 b6 01 3d 72 32 e5 3c 78 41 bd 3d
       0.09805753 0.031668067 0.027978156 0.09241003
000050 08 9a e3 3d 3f 82 94 bd 73 a9 9e bc bb fd a0 3d
       0.111133635 -0.07251405 -0.019367909 0.07860895
000060 60 63 ad bd 3e 49 2a 3e bd f2 f5 bd c9 0f a7 3d
       -0.0846622 0.16629502 -0.12009189 0.08157308
000070 23 01 01 be ae 92 6c 3d 9c ea fe 3d 33 c4 b6 3c
       -0.1259809 0.057757072 0.12447092 0.022310352
000080 6b 56 99 bc 64 2d e4 3d d9 00 03 be 96 4d f6 bd
       -0.018717965 0.1114147 -0.12793292 -0.12026517
000090 5f 4e 1b be 8c e6 e0 bd 6d 26 6b 3b 82 36 a6 bd
       -0.15166615 -0.10981473 0.0035881058 -0.08115865
0000a0 b3 37 1d 3d 19 b4 a2 3b 98 a7 16 3e eb 07 9f bd
       0.038383197 0.004965317 0.1471237 -0.07765182
0000b0 eb 2d 4a bd 40 73 ef 3d a3 2e 3b bd 6f 48 2c 3e
       -0.049360197 0.11691904 -0.045698773 0.16824506
0000c0 67 cb 8f bd 50 c3 fd ba 78 a6 2f bd 27 dc a6 3d
       -0.07021218 -0.0019360576 -0.042883366 0.081474595
0000d0 67 ac 88 3d bb cb c0 bd f6 8f ee 3d 09 6c 48 bc
       0.06673508 -0.094138585 0.11648552 -0.012232789
0000e0 ed 32 3b bd 58 9d 95 bb 49 e9 f9 3d bf 91 31 3e
       -0.045702863 -0.004565876 0.12202699 0.17340754
0000f0 db 1d ae 3d b5 35 f5 3c 18 3b ea 3d e1 70 99 bd
       0.08501788 0.029932836 0.114370525 -0.07492233

fc_action_a.0.bias f4 [2]
000000 8d 27 bb bd 02 33 55 bd
       -0.09138403 -0.052050598

fc_action_b.0.weight f4 [2, 33]
000000 5e ca e8 bd 9a 3d 97 3d 06 89 7e 3c 9c 0b 78 bd
       -0.113667235 0.073847964 0.015535599 -0.060557947
000010 a3 f7 98 bc 98 de 91 bb 57 d1 17 3e 45 19 1e 3e
       -0.01867277 -0.004451584 0.1482595 0.15439327
000020 f0 40 0a be b6 9c 80 3d 78 aa 89 3d 31 45 86 3d
       -0.13501334 0.0627989 0.067219675 0.06556166
000030 59 9b ca bc 7f 51 32 3d 8f 53 2f 3d cd 78 2c 3e
       -0.024732279 0.043534752 0.042804297 0.16842957
000040 55 d8 2a be 8b 49 87 bd ca e8 f1 bd 1c fb ae bd
       -0.16684087 -0.06605824 -0.11811979 -0.08543989
000050 c0 e5 07 3d 26 6e d9 3d a1 cc 06 be bd d4 e5 3d
       0.03317809 0.10616712 -0.13163997 0.11222217
000060 8b df 13 3e 5a c6 b1 bd 31 b5 f0 3c 57 06 b7 bd
       0.14440744 -0.08680411 0.029383274 -0.08936756
000070 b4 9f 14 3d ac 55 a7 bd ba ed 8c bd d0 b3 f0 bd
       0.036285117 -0.081706375 -0.0688128 -0.117530465
000080 90 9f 13 be f9 39 0d 3e 2f 47 bc bc 9c 03 bf bb
       -0.14416337 0.13791646 -0.022983162 -0.0058292877
000090 03 79 b3 bd f7 70 f6 3d fe 1a ce bd 43 3e 92 bd
       -0.087633155 0.12033265 -0.10063742 -0.07140782
0000a0 41 2c 0c be 65 ea 16 be e6 3a 1d 3e ed a5 09 be
       -0.13688757 -0.14737852 0.15354499 -0.13442202
0000b0 c5 11 cd bc cd 7c 52 bd eb 95 82 3d 87 9d 3a 3d
       -0.025032887 -0.05138855 0.06376251 0.045560386
0000c0 4f ac 09 be 33 16 20 3e ec 90 31 be 2b da 84 3c
       -0.13444637 0.15633468 -0.1734044 0.016217312
0000d0 99 a8 7e bc 08 55 29 bd 51 f3 f2 3d 0e 81 16 3e
       -0.0155431265 -0.041340858 0.11862815 0.14697668
0000e0 c6 91 b1 3c 48 ef 7f bd ff 7f 03 3e e4 ef dd 3d
       0.021675956 -0.062484056 0.12841795 0.10836771
0000f0 86 10 00 3d 9d 1d 47 bd 39 b8 cf 3b a5 da 1d 3e
       0.031265758 -0.048612226 0.0063390997 0.15415438
000100 6a 74 92 3c 71 6a 08 bd
       0.017877776 -0.033304635

fc_action_b.0.bias f4 [2]
000000 ea f1 17 be 98 18 c1 bd
       -0.14838377 -0.09428519

fc_action_c.0.weight f4 [2, 34]
000000 c8 b7 ff 3d e0 1e a5 bb 39 bb 2a bc 84 cd 8a 3d
       0.12486225 -0.005039081 -0.010420614 0.0677748
000010 fd 08 e5 bd 81 6d 2d bc 35 79 41 bd 83 d1 b9 3d
       -0.11183355 -0.01058519 -0.047234733 0.09073164
000020 7e f1 0f 3e 62 96 de 3d 30 ee 02 3e 4d ec 1b be
       0.14056966 0.10868527 0.12786174 -0.1522686
000030 d5 49 75 bd 51 5d a6 3c 92 22 14 be 59 a7 42 3d
       -0.059884865 0.020308169 -0.14466313 0.047522876
000040 68 39 e6 bd 8c 81 96 3d 75 28 0f 3e 8f 34 15 be
       -0.11241418 0.07348928 0.13980277 -0.14570831
000050 ca 2d 14 3e 4c e2 a3 3d 9f c8 e7 bd 4a 1e 29 3e
       0.14470592 0.08002147 -0.11317562 0.1651546
000060 df 12 17 be 06 68 ea bd 5e ab ac bd 19 49 0e bc
       -0.14753293 -0.11445622 -0.08431123 -0.00868442
000070 8f 3c 02 3d 0b 0e 4a bd 88 6e 25 be cc fa 99 bc
       0.031796034 -0.0493298 -0.16155446 -0.018796347
000080 b2 37 04 3e 77 3c 08 3e 44 c6 ad 3d 4b c9 c3 3c
       0.12911871 0.13304316 0.08485082 0.023899695
000090 70 72 2a 3d 2d 68 08 be b5 2d 8c 3d 48 cd 2f be
       0.041613042 -0.1332099 0.068446554 -0.17168152
0000a0 53 18 93 bd 32 b3 3c bd ee de ff 3d ac 95 c4 bb
       -0.07182374 -0.04606933 0.12493692 -0.0059992876
0000b0 f6 fc 9f bd 57 42 ed 3c 66 be 12 be 23 fb 39 bd
       -0.0781192 0.028962297 -0.14330444 -0.04540552
0000c0 89 73 3e 3d 86 79 4a bc 3c 8b 93 bc 9a a9 d6 3d
       0.0464969 -0.012358075 -0.018010728 0.10481568
0000d0 fd 6c 06 be 7f 64 b3 bd 43 f7 28 3e 09 c8 0b 3d
       -0.13127513 -0.087594025 0.16500573 0.034126315
0000e0 b0 78 e3 bc 42 e2 b3 3d f7 3e d1 3d 84 f4 f2 bc
       -0.02776751 0.0878339 0.10217088 -0.02965761
0000f0 75 59 94 bd f1 a4 e5 bc f4 f8 7a 3d 36 8c bb bc
       -0.07243625 -0.028032752 0.061272576 -0.022894006
000100 17 5e ca 3d 2e 3c 10 be b0 46 aa bd 9c da 04 3e
       0.098812275 -0.14085457 -0.08314264 0.12974018

fc_action_c.0.bias f4 [2]
000000 66 80 c0 3c f4 5b 09 3d
       0.023498725 0.03353496

fc_action_d.0.weight f4 [2, 35]
000000 f7 b5 63 3d 01 99 23 bd 29 70 8a bd d6 9f 46 3d
       0.055593457 -0.039940838 -0.06759674 0.048492275
000010 8a 7e 37 bd 15 01 8f bd 81 f1 b6 3c 76 77 27 3d
       -0.04479841 -0.06982628 0.022331955 0.04088541
000020 c2 0d 7a bc dc 1d ea bd ab 5e d1 bc df 2f c4 bd
       -0.015262069 -0.114314765 -0.025557837 -0.09579443
000030 a3 32 b6 3d 25 60 e5 bd 4e 02 0a 3e a4 e0 89 3d
       0.08896377 -0.11199979 0.13477442 0.067323
000040 c5 37 14 be ce 72 00 3e 2e 2c 2b be 33 04 21 bc
       -0.144744 0.12543795 -0.16716072 -0.009827661
000050 0e 23 d8 bd 29 e7 14 be 33 32 89 3c 97 d8 a7 bd
       -0.10553561 -0.14541306 0.01674757 -0.08195608
000060 51 3a fa 3d db 10 08 be a9 aa 0f 3e b0 d8 d0 3d
       0.12218154 -0.1328768 0.14029945 0.1019758
000070 b8 99 17 3e 10 be 4a bd 96 30 d4 bd 97 fc e5 bd
       0.14804733 -0.049497664 -0.103608295 -0.11229818
000080 3d ef 0f 3e db 2d ac bd a3 7e aa bc fe 9f dd bc
       0.14056106 -0.08407184 -0.020812338 -0.02705383
000090 5c 07 e6 3c 5c 0e 0f be 17 8b 0a 3e 22 19 01 be
       0.028079681 -0.13970321 0.13529621 -0.12607244
0000a0 c9 37 29 3e 3a 80 89 bd 9a 96 9c bd c6 85 c6 bc
       0.16525187 -0.067139104 -0.076459125 -0.02423371
0000b0 31 cf 48 3d 2e 48 00 bd 17 c6 2d be 2b 72 f1 3d
       0.049025718 -0.031318836 -0.16970097 0.11789354
0000c0 f4 70 2b 3e 7a 9b ac 3d c4 58 28 3e 48 b3 3c 3d
       0.16742307 0.08428092 0.16440111 0.046069413
0000d0 70 02 59 bc 30 e3 0a be ac 4d 18 be 78 63 f0 bd
       -0.01324521 -0.13563228 -0.1487338 -0.11737722
0000e0 4c aa 2f bd 89 94 c9 3d d4 df 90 bd 0a e4 f7 bb
       -0.042887017 0.09842784 -0.07073942 -0.007565026
0000f0 00 e0 5d bb dd 55 e4 bd b1 ef 95 bb f2 19 26 3e
       -0.0033855438 -0.111491896 -0.0045756926 0.16220835
000100 29 51 09 3e 86 cd 02 3e 90 c2 90 bc aa ff 82 3b
       0.13409866 0.12773713 -0.0176709 0.0039977627
000110 8b 33 bb 3d df 63 6a bd
       0.091406904 -0.05722415

fc_action_d.0.bias f4 [2]
000000 79 4b 8c bd 5b 11 13 3e
       -0.06850333 0.1436209
